Diabetes Detection/diabetes_model.pth (torch, 4265 bytes, 5 tensors)

net.0.weight f4 [16, 8]
0	0x3c25bb75	0.010115494
1	0x3e65c6f5	0.22439177
2	0x3df58dcb	0.119899355
3	0xbe533d28	-0.20628798
4	0xbe27a48a	-0.1637136
5	0x3e7d564d	0.24739952
6	0x3e82a812	0.25518852
7	0xbccb9d0a	-0.024855155
8	0xbe91c92a	-0.28473788
9	0xbeec2889	-0.46124676
10	0x3da24021	0.07922388
11	0x3e173132	0.1476486
12	0x3e1e1eda	0.15441456
13	0xbedd049a	-0.43167573
14	0x3e97ab74	0.29622996
15	0x3e2603a6	0.1621233
16	0xbda466eb	-0.080274425
17	0x3ed64e66	0.41856688
18	0x3e519794	0.20467979
19	0xbe6da915	-0.23209031
20	0xbec245d6	-0.37943906
21	0x3edc54fc	0.43033588
22	0x3e9a5a6a	0.30147105
23	0xbe64914b	-0.2232105
24	0xbe9058a5	-0.2819263
25	0xbedb5001	-0.42834476
26	0x3e12f4b4	0.1435116
27	0x3de4178c	0.11137304
28	0xbec21c57	-0.37912247
29	0xbea3b47c	-0.31973636
30	0xbec0edb9	-0.37681368
31	0xbe85140e	-0.25991863
32	0xbede4325	-0.43410602
33	0x3db22664	0.08698729
34	0x3e4716d8	0.19442308
35	0x3dc2d97e	0.095141396
36	0xbd24afef	-0.040206846
37	0xbea904f7	-0.330116
38	0xbd0172ed	-0.031603742
39	0xbedab3e8	-0.42715383
40	0x3ea8817e	0.32911295
41	0x3def5d70	0.11687744
42	0x3eb07d27	0.34470484
43	0xbead7451	-0.33877805
44	0xbe90b1b7	-0.28260586
45	0x3d3b266b	0.045690935
46	0x3d1fc471	0.0390057
47	0x3e7cdc72	0.24693468
48	0x3eae4717	0.34038612
49	0x3eb878a3	0.3602954
50	0xbe862b0d	-0.2620472
51	0x3e1892f3	0.14899807
52	0x3ea11705	0.31462875
53	0x3de15470	0.11002433
54	0x3d9d2040	0.07672167
55	0x3edd97fa	0.4328001
56	0x3d85715d	0.06515763
57	0x3e35a44a	0.17738453
58	0x3e6ea03d	0.23303314
59	0x3d8eea5c	0.06978294
60	0x3e0f88cd	0.14017029
61	0x3e819c9c	0.25314796
62	0x3d8262e8	0.06366521
63	0xbe68d6c4	-0.22738177
64	0xbe5a2d1e	-0.21306273
65	0x3e915d6f	0.28391597
66	0x3deba527	0.1150611
67	0xbe82b557	-0.25528976
68	0xbeae10df	-0.33997247
69	0x3eb34776	0.35015458
70	0x3d0f01d0	0.034913838
71	0x3ce81350	0.028329521
72	0x3e6f3a74	0.23362142
73	0x3e6190df	0.2202792
74	0xbe1ea156	-0.15491232
75	0x3e40a8de	0.18814418
76	0x3da4124f	0.080113046
77	0x3dc025c3	0.093822025
78	0xbdfe0514	-0.12403312
79	0x3e6ded77	0.23235117
80	0x3e3423c6	0.17591771
81	0x3e8d22f2	0.27565724
82	0x3e945ed8	0.2897861
83	0x3e5d65f6	0.21620926
84	0x3ce224b4	0.027605392
85	0x3ed59282	0.4171334
86	0xbe5144b9	-0.20436372
87	0xbdf1951b	-0.11796018
88	0x3cb07b6b	0.021543225
89	0x3eb048ce	0.34430546
90	0x3cbb4363	0.02285928
91	0x3e981429	0.2970288
92	0xbe018eda	-0.1265215
93	0x3e67687e	0.22598454
94	0xbd30cc7d	-0.043163765
95	0x3ecdf10e	0.40222973
96	0x3c87810a	0.016541023
97	0x3dbdc4b3	0.09266033
98	0x3ec8b3a7	0.39199564
99	0x3d1e7df8	0.038694352
100	0x3e571657	0.21004616
101	0xbe74a487	-0.23890887
102	0x3eb9849e	0.3623399
103	0x3ecf03da	0.40432626
104	0x3e916973	0.28400764
105	0xbe3b56f6	-0.18294892
106	0x3c9ea4f8	0.019365773
107	0x3ed80b99	0.42196348
108	0x3e515c47	0.20445357
109	0xbd0c49f6	-0.034250222
110	0x3e7b98ad	0.2456996
111	0xbe819c54	-0.2531458
112	0xbe92b8d2	-0.28656632
113	0x3e26732c	0.16254872
114	0x3e8c68a2	0.27423579
115	0xbe0a146e	-0.13484356
116	0x3e464539	0.19362344
117	0x3e6b8f75	0.23003943
118	0x3e077dc9	0.13231577
119	0x3e27a25f	0.16370533
120	0xbe918a75	-0.28425947
121	0xbd921113	-0.07132163
122	0x3ed02637	0.40654156
123	0xbe2c2664	-0.1681152
124	0xbddbf3ee	-0.10739885
125	0xbde664c5	-0.11249689
126	0xbec71e34	-0.3889023
127	0x3dc2fdd6	0.095210716

net.0.bias f4 [16]
0	0x3e60b016	0.21942171
1	0x3e4d741b	0.20063822
2	0x3e8d3288	0.27577615
3	0x3e948016	0.29003972
4	0x3ed14d01	0.40879062
5	0x3d9e0a30	0.07716787
6	0x3e68edbf	0.22746943
7	0xbe83edf4	-0.2576748
8	0xbc497909	-0.012296923
9	0x3d237edf	0.039915916
10	0x3e7da5aa	0.24770227
11	0xbd26aa28	-0.040689617
12	0x3e1e207b	0.15442078
13	0x3e12df95	0.14343102
14	0xbe5396ce	-0.20662996
15	0x3d78c7ee	0.060737543

net.2.weight f4 [8, 16]
0	0xbe74a0ea	-0.23889509
1	0xbda70581	-0.08155347
2	0xbd5579b0	-0.052118003
3	0x3d176c00	0.03696823
4	0x3d16f72c	0.036856815
5	0x3e90cfcb	0.28283533
6	0xbe95357d	-0.2914237
7	0xbe87ffea	-0.26562434
8	0xbe61e2b0	-0.2205913
9	0x3d72b466	0.059254073
10	0xba7ffb50	-0.00097649265
11	0x3da01045	0.07815603
12	0x3e8d829e	0.27638716
13	0x3d52bb92	0.051448412
14	0xbe94df1c	-0.2907647
15	0x3d4377e5	0.047721762
16	0xbe30f72c	-0.17281789
17	0x3ebcd36f	0.3688006
18	0x3d91584d	0.0709692
19	0x3e9146e7	0.28374407
20	0x3e9c8617	0.30571052
21	0x3e2ac18e	0.16675398
22	0x3dc79d75	0.097468294
23	0xbe8ca274	-0.27467692
24	0x3de52114	0.1118795
25	0x3c22409c	0.009903099
26	0x3e152bcb	0.14567487
27	0xbdd20760	-0.10255313
28	0xbe2a9aca	-0.1666061
29	0xbdb168a9	-0.086625405
30	0xbdc1ba9d	-0.09459422
31	0x3e1a662d	0.1507804
32	0xbe6a8c3e	-0.2290506
33	0x3d9ac49d	0.07557032
34	0xbe8574e3	-0.2606574
35	0x3d853f71	0.06506241
36	0x3e942cef	0.28940532
37	0x3e32d81e	0.17465255
38	0x3de30893	0.1108562
39	0xbd1f3e6b	-0.038877886
40	0x3e0a2a6b	0.13492744
41	0xbe81ea24	-0.25373948
42	0xbd44d5e3	-0.04805554
43	0x3ca505c2	0.020144347
44	0xbd288039	-0.041137908
45	0x3e486498	0.19569623
46	0x3e09542f	0.1341102
47	0x3da3a884	0.07991126
48	0x3cff3ac5	0.031155953
49	0x3ce886f5	0.028384665
50	0xbe54ee0c	-0.20793933
51	0xbbd48ff5	-0.0064868876
52	0xbda13975	-0.07872287
53	0x3e97812a	0.29590732
54	0x3e03b428	0.12861693
55	0x3e26c306	0.16285333
56	0xbd14a56a	-0.036290564
57	0xbe6ff58e	-0.23433515
58	0xbd1fd182	-0.03901816
59	0x3c9373ba	0.017999519
60	0x3dfc53d4	0.123206764
61	0xbe4a105b	-0.19732802
62	0xbe70a273	-0.2349947
63	0x3d5bd02e	0.053665332
64	0x3e141dc5	0.14464481
65	0x3d550dd0	0.052015126
66	0x3d0778af	0.033074077
67	0xbc0a4f6e	-0.008441789
68	0xbe875be7	-0.26437303
69	0x3dae8d13	0.085230015
70	0xbc92413e	-0.017853376
71	0x3e2181e4	0.15772206
72	0x3e907395	0.28213182
73	0x3d928fd7	0.071563415
74	0x3e96da19	0.2946327
75	0x3ec1e2f9	0.3786848
76	0x3c73841b	0.014863039
77	0xbda70d05	-0.0815678
78	0x3e61b7b9	0.22042741
79	0x3cfa0860	0.030521572
80	0xbe072847	-0.13198958
81	0x3cb8bae7	0.02255006
82	0x3ea74100	0.3266678
83	0xbe91de91	-0.28490117
84	0xbd92a6df	-0.071607344
85	0x3e02693d	0.12735458
86	0x3e9b76b4	0.30364
87	0xbd378bef	-0.044811185
88	0x3e856c5c	0.26059234
89	0x3e0d74cb	0.13814084
90	0x3ea92cd3	0.3304201
91	0x3e0352a1	0.12824489
92	0x3e9bda2c	0.3043989
93	0xbd36a733	-0.044593047
94	0x3eaa9780	0.3331871
95	0x3ba0d06f	0.0049076597
96	0xbd7da5b1	-0.061925594
97	0xbe766923	-0.24063544
98	0x3e5b6ac6	0.2142745
99	0xbea8c95a	-0.3296612
100	0x3d824bef	0.063621394
101	0x3eafb8e5	0.3432075
102	0xbd9199af	-0.07109391
103	0xbd956408	-0.0729447
104	0x3ea9d98f	0.33173797
105	0x3d39dd65	0.045377154
106	0xbd21fd2c	-0.039548084
107	0x3e600723	0.21877722
108	0x3e3f1c54	0.1866315
109	0x3e810c06	0.25204486
110	0x3e305261	0.17218925
111	0x3e1418ea	0.14462629
112	0xbb8e3172	-0.0043393904
113	0xbcb8040c	-0.022462867
114	0xbe3ff7ee	-0.18746921
115	0x3e829d5a	0.25510675
116	0x3c60d83a	0.013723427
117	0x3d1ac18e	0.037782244
118	0xbe30ea01	-0.17276765
119	0xbdbd6aa9	-0.092488594
120	0x3d72558b	0.05916361
121	0x3e092ccd	0.13395996
122	0xbc793cc3	-0.015212241
123	0x3ab8018f	0.001403855
124	0x3d030f6c	0.03199713
125	0x3d8e206f	0.0693978
126	0xbe919782	-0.28435904
127	0x3e8e7bae	0.27828735

net.2.bias f4 [8]
0	0x3e8030fd	0.25037375
1	0xbd05ae22	-0.03263677
2	0x3e56a8c6	0.2096282
3	0xbe4b53d1	-0.19856192
4	0xbcc10939	-0.023563968
5	0x3e262c7d	0.16227908
6	0xbcad70a4	-0.021171875
7	0x3ea3ff8c	0.32030904

net.4.weight f4 [1, 8]
0	0xbe7f5a25	-0.24936731
1	0xbeafcf6a	-0.34337932
2	0xbdee8b8c	-0.1164771
3	0xbe91ef38	-0.28502822
4	0x3ea10cd4	0.314551
5	0x3e98e8ec	0.29865205
6	0x3e6b9866	0.23007354
7	0xbe93f0ae	-0.28894562
